PyTorch/Udacity/Chapter1/checkpoint.pth (torch_old, 972522 bytes, 8 tensors)

0.weight f4 [256, 784]
000000 3a db d3 3d 15 fc fb 3d 59 ff fc 3d b8 4c 05 3e
       0.103445485 0.1230394 0.12353391 0.13017547
000010 a6 49 f5 3d 11 dc e0 3d 89 61 d6 3d a4 ab c5 3d
       0.11976938 0.10979474 0.10467822 0.096518785
000020 e3 84 e9 3d 3a 09 c9 3d 17 26 8f 3d f4 7e 89 3d
       0.11402299 0.09816213 0.06989687 0.067136675
000030 b0 80 8d 3d 5d 07 68 3d c2 2a bc 3d 7e e8 ec 3c
       0.06909311 0.056647647 0.09187843 0.028919455
000040 73 8e 90 3d 36 e3 a4 3d 2a 5f 80 3d 5e 7f e2 3d
       0.0705842 0.080511495 0.06268151 0.110594496
000050 30 75 e8 3d 5d 8f bb 3d f5 b3 de 3d 04 71 11 3e
       0.11350477 0.09158204 0.10874168 0.14203268
000060 75 7b ef 3d 8d 0f 14 3e 32 13 a3 3d 96 d7 f6 3d
       0.116934694 0.14459057 0.079626456 0.120528385
000070 b0 58 d4 3d 39 3a 0c 3e fc cb f6 3d a4 7d cd 3d
       0.10368478 0.13694085 0.12050626 0.1003373
000080 ef 32 01 3e fa 06 55 3d 9d 6c ec 3c d8 7e 3c 3c
       0.12617086 0.052008606 0.028860385 0.011504851
000090 12 57 ef bb c5 1e f6 3b 99 0d 88 39 38 75 f2 3d
       -0.0073040808 0.007510992 0.00025950072 0.11838764
0000a0 65 44 b6 3d dc 45 b4 3d 40 f1 a9 3d 89 75 ce 3c
       0.08899764 0.08802387 0.08297968 0.02520253
0000b0 2b ef c2 3c a5 78 cf 3c a6 0e 84 3c d9 9f 60 bd
       0.023795685 0.025326082 0.016120266 -0.054839943
0000c0 71 57 1c 3c 37 5c b0 bb 00 64 05 3b 9e 8f 8e 3d
       0.009542332 -0.0053820866 0.0020353794 0.069609866
0000d0 07 9b a1 3d 51 24 93 3d ac f6 ee 3d 9b 31 01 3e
       0.07890897 0.07184661 0.11668143 0.12616579
0000e0 9e 75 12 3e f0 6c eb 3d 1a 18 f1 3d 2e b1 28 3e
       0.1430268 0.114953876 0.11772175 0.16473839
0000f0 bd 5c 7e 3d 1b 30 36 bc 2a c8 47 bc 3d 35 b4 3c
       0.06210016 -0.011119868 -0.012193719 0.021998042
000100 77 c2 28 bd c0 00 6e 3c 47 1d 12 bd 50 e6 51 bd
       -0.04120108 0.014526546 -0.035672452 -0.051245034
000110 f6 b5 a8 bc bd 4e 87 bd a4 bb 95 bc bd b4 8a bd
       -0.020594578 -0.06606815 -0.01827795 -0.06772754
000120 9e bc 70 bd c8 1b 60 bd 99 13 37 3b 0d f4 26 bc
       -0.05877363 -0.054713994 0.0027935265 -0.010190022
000130 7b 73 f8 3b 23 55 b1 3a cd 76 7d 3d 64 85 a4 3c
       0.0075821257 0.0013529401 0.061880875 0.020083137
000140 0f 04 e8 3d 83 f7 f2 3d 5d fe 18 3e 87 c3 bd 3d
       0.11328899 0.11863615 0.14940782 0.092658095
000150 f2 dc 04 3e 96 4d 07 3e 49 45 29 3e 9b 6d 2a 3e
       0.12974909 0.1321319 0.16530336 0.16643374
000160 81 c1 6d bc 6f 6e 23 3d 21 62 82 3d 1e d0 b3 3c
       -0.014511467 0.03990024 0.06366373 0.021949824
000170 21 98 dd 3c 18 fc 09 3d e4 4c db bc 9a a4 65 bd
       0.02705008 0.03368768 -0.026770063 -0.05606518
000180 b4 e0 1d 3d 80 fa 8f bb c2 c5 a8 3d a1 21 a8 bc
       0.03854437 -0.0043938756 0.08240844 -0.020523848
000190 ba e5 9a 3d 62 00 96 3c 99 82 bb 3c ad db 35 3d
       0.07563348 0.01831073 0.022889422 0.044398952
0001a0 b4 1d 75 3d 3b 5d 64 3d 83 75 61 3d e6 85 81 3d
       0.05984278 0.055752974 0.05504371 0.06324367
0001b0 bf 07 98 3d 53 3d 1f 3e aa d8 b1 3d dd 5c 0c 3e
       0.074233525 0.15550737 0.086839035 0.137073
0001c0 52 02 cd 3d 86 29 04 3e 26 7e 22 3e 9a c3 83 3d
       0.10010208 0.12906465 0.15868434 0.064337924
0001d0 03 23 c7 bc 77 38 c3 3b f4 e5 c2 3c 08 b8 2b 3d
       -0.024308687 0.005957659 0.02379129 0.041923553
0001e0 09 47 12 3c 83 6d 48 3c 8a 3d 50 bc 6e bb 4c 3d
       0.008928069 0.012233141 -0.012709985 0.049983434
0001f0 70 70 1a 3d 45 ed d7 bc 68 fb a5 3b b7 af e4 bc
       0.037704885 -0.026358256 0.0050653704 -0.027915819
000200 d9 2e 52 3b d3 61 e7 bc 60 f8 19 3c 95 af b2 3c
       0.003207138 -0.028244888 0.009397596 0.02181224
000210 0f 1d 70 3d 06 10 a4 3c c0 49 a3 3d 83 8b ac 3d
       0.058621462 0.020027172 0.07973051 0.08425047
000220 8b b3 2b 3d 41 4e 03 3e b6 07 d3 3d 10 38 16 3e
       0.041919272 0.1282282 0.10304205 0.14669824
000230 1d af 12 3e 3a 15 06 3e b3 da 1c 3e 52 40 06 3d
       0.14324613 0.13094035 0.15317802 0.032776184
000240 48 9e 13 3d ad d8 2a 3d 33 2a 46 b9 fb 20 3c 3c
       0.03603962 0.041710544 -0.00018898472 0.0114824725
000250 bd 70 f8 bb e5 44 5a bd 11 ea f4 bc 12 d4 26 bd
       -0.007581799 -0.05328836 -0.029896768 -0.04072959
000260 1d 2f 30 3c 08 36 43 bb 37 51 e8 3c a3 93 27 bd
       0.01075342 -0.0029786844 0.028359039 -0.04091228
000270 66 69 8b 3c f3 f1 f2 bc 5c 8f 8a 3c 84 6f 46 3d
       0.017018031 -0.029656386 0.016914062 0.048446193
000280 81 43 22 3d 2c 5c b9 bb 74 c2 04 3d 69 06 9a 3d
       0.039615158 -0.0056567397 0.032412007 0.07520754
000290 82 cc 36 3c c6 ed 8a 3d 2c 8b 36 3e c2 64 1a 3e
       0.011157157 0.06783633 0.17826527 0.15077499
0002a0 65 02 21 3e c7 13 c9 3d 27 d1 c5 3d 97 4b 13 3c
       0.1572357 0.09818225 0.09659033 0.00899019
0002b0 86 49 99 3b ea 4f 6c 3d 3a 1e 2c 3c 94 d7 bf 3c
       0.004677954 0.0576934 0.010505253 0.023418225
0002c0 21 42 8a bb 38 d2 0e bc 61 b2 79 bd e5 6e 2e 3c
       -0.004219309 -0.008717112 -0.06096113 0.0106465565
0002d0 68 2f 0c bd be e2 c9 bc 6f 23 aa bc cb f3 d1 3b
       -0.034224898 -0.024644252 -0.02076885 0.006407236
0002e0 08 5c 9a 3c 1e 36 65 bc eb 61 e9 bc 49 07 8d 3c
       0.018842712 -0.013989953 -0.028489074 0.017215388
0002f0 0a cc 03 bc 72 8e 0d 3d da ed 5c 3d 8e d6 75 3c
       -0.008044252 0.034559675 0.05393777 0.015004767
000300 97 5d e3 3b 90 d0 2b 3d 7b 51 f7 3d d0 5e 1b 3e
       0.006938647 0.041946948 0.12076088 0.15172887
000310 cf e0 fd 3d f3 cf c6 3d 4b 27 cc 3d 01 eb 0f 3c
       0.123963945 0.09707632 0.09968432 0.008784057
000320 93 46 8d b9 ad bd 8d 3d c6 4a 8f 3c c5 ba 44 3b
       -0.00026946198 0.069209434 0.01749171 0.003001855
000330 3e ef 50 bd 77 06 34 bd 0b ed 00 ba 6c 86 a5 3a
       -0.05100941 -0.043951478 -0.00049181347 0.0012628562
000340 cd 14 28 bd 45 71 f8 bc 9f dd 09 bd 5c 78 28 bd
       -0.041035462 -0.030327449 -0.03365862 -0.04113041
000350 92 8f 4f bd 7a 23 de bc b6 9e 69 bd 96 94 81 3c
       -0.05067403 -0.027116526 -0.057036124 0.015817922
000360 54 26 90 3c 90 dc 49 3d 80 60 81 3c b8 b9 cb 3c
       0.017596401 0.04928261 0.015793085 0.024868831
000370 70 83 00 3d dc 95 16 bc 1d 99 46 3e 04 a5 31 3e
       0.03137535 -0.009191003 0.19394346 0.17348105
000380 f3 52 27 3e 02 db ef 3d d8 be 05 3e 7e 00 0b bd
       0.16340236 0.11711694 0.13061082 -0.033936016
000390 fc 78 8d 3d 10 26 a0 3d 65 b5 d4 3c c4 25 f7 3c
       0.069078416 0.0781976 0.025965402 0.030169375
0003a0 7b 71 3f bd f9 d6 79 bd af b1 ca bc da b6 65 bc
       -0.046739083 -0.06099603 -0.02474293 -0.014020646
0003b0 4c 69 78 bc 7a 46 cc bc 5d fa 3b bd 2b 84 41 bd
       -0.0151618235 -0.02493595 -0.045893062 -0.047245186
0003c0 55 ac 7c bd 20 92 4c bd fa f6 0f bd 6c 96 80 bc
       -0.061687786 -0.049944043 -0.035147645 -0.015696727
0003d0 8a f5 a8 3c d7 e9 79 3c b8 ed e1 3c c6 a3 8a 3d
       0.020624895 0.015253506 0.027579173 0.067695186
0003e0 34 a7 bd 3c 07 ff 9f 3c df 29 1f 3e 67 52 04 3e
       0.023151018 0.019530786 0.15543316 0.12922059
0003f0 58 46 cc 3d 61 2b d8 3d 55 3d a7 3d aa e2 62 3c
       0.099743545 0.10555149 0.08165995 0.013847986

0.bias f4 [256]
000000 fc d1 09 be 81 d0 1b be 25 e7 fd be 16 9e 12 be
       -0.13459009 -0.15216257 -0.49590412 -0.14318117
000010 83 2d 55 be e1 69 0a be a4 d7 37 be 27 6a 3a be
       -0.20818143 -0.13516952 -0.17953354 -0.18204556
000020 c3 56 d4 bd 1d 0f 91 be 64 11 20 bd 1c 67 89 be
       -0.10368111 -0.28331843 -0.039079085 -0.2683648
000030 9c 54 87 bc 9f b1 e5 be dc 63 4b be aa 7c 8c be
       -0.016519837 -0.44862077 -0.19862312 -0.2743886
000040 b1 fe 11 be 79 0c 04 be 78 e1 d0 bd c8 c1 bf bd
       -0.14257313 -0.12895383 -0.10199255 -0.09363133
000050 73 b8 a7 bc 24 ba 24 be b1 d0 aa 3d 0c 21 e3 bc
       -0.020473694 -0.16086632 0.08340586 -0.027725719
000060 8d 9c a0 bc ae 25 7b bd 1a 17 af be 33 9b f7 be
       -0.0196059 -0.06131523 -0.34197313 -0.48360595
000070 55 5c 82 be a0 b7 44 be 7a b4 81 be 35 bb 52 bd
       -0.2546107 -0.19210672 -0.25333005 -0.051448066
000080 b7 64 b9 be eb 34 01 bd 7e 09 d1 bc 7b cd 85 be
       -0.36209652 -0.031544607 -0.025517222 -0.26133332
000090 ff 69 05 bd 7c 14 59 be 45 56 ef bd 75 77 a4 be
       -0.03257179 -0.2119922 -0.116863765 -0.32122388
0000a0 9c bb 08 be bb ce 5b bd 29 fb 72 be 3b 39 53 bd
       -0.13352817 -0.05366395 -0.23728622 -0.05156825
0000b0 b1 f4 a2 be 77 76 02 be c9 c3 3d 3e 51 f2 a3 bd
       -0.3182731 -0.12740503 0.18531717 -0.080052026
0000c0 de f7 29 be 02 35 6c be 67 29 00 be c1 c2 12 be
       -0.1659846 -0.23067096 -0.12515794 -0.14332105
0000d0 e1 98 0d 3c 03 fa fc bd c0 87 89 be 8d e0 e9 bd
       0.008642406 -0.123523735 -0.26861382 -0.11419783
0000e0 65 38 19 be 40 65 ed bc 9f 75 29 be d8 41 6a bd
       -0.14962919 -0.028978944 -0.16548775 -0.0571917
0000f0 63 92 19 bd e0 de b0 bd c7 56 a9 be ac b1 83 be
       -0.03749312 -0.0863626 -0.33074018 -0.2572149
000100 e4 f1 06 bd 83 a2 ec be 28 96 bb be ab a1 64 bd
       -0.03294553 -0.46217737 -0.36637998 -0.05581824
000110 9a 05 cc be be de 48 bd b5 3b 11 bf a3 22 8f be
       -0.39848024 -0.04904055 -0.5673173 -0.27956113
000120 d2 c4 dd bd a7 1a a7 be 47 5f 92 bd 6e eb fe bd
       -0.10828556 -0.32637522 -0.07147079 -0.124472484
000130 e5 59 8e be e9 d2 c9 be d4 2c 44 be c0 a5 ab bd
       -0.2780296 -0.39418724 -0.19157726 -0.08381224
000140 81 93 27 be 54 0b 88 be 0a fd 2e bd 1e 3e a1 be
       -0.16364862 -0.26571143 -0.042721786 -0.31492704
000150 67 c1 47 be ee f8 79 be 87 b0 9f 3c 90 8d 71 be
       -0.19507371 -0.24411365 0.019493354 -0.23589158
000160 98 5c 8a 3c 92 c1 7d be bc 73 96 be a7 5a 70 bd
       0.016889855 -0.24780872 -0.29385173 -0.058680203
000170 23 0c 60 bd 58 24 27 be 25 8f f0 bb 66 1f 86 be
       -0.054699074 -0.16322458 -0.007341283 -0.2619583
000180 1d 37 7d bd e3 57 bb bc e5 e8 75 be 59 2e 11 be
       -0.06182014 -0.022869056 -0.24014623 -0.14177836
000190 42 bc b4 be 05 15 aa be f8 53 7e be 52 cb 82 be
       -0.3529988 -0.33219162 -0.24836719 -0.25545746
0001a0 16 97 50 be 70 03 b9 bd 9a e1 9f be ed 45 d8 bd
       -0.20370135 -0.09033859 -0.31226808 -0.10560212
0001b0 74 9c ff bd 6b 86 ad be 9c 16 89 be 7e 2a 69 be
       -0.12481013 -0.33891615 -0.26775062 -0.22770116
0001c0 92 98 09 be e7 6b 8c be 17 3a 22 bd fd 91 94 be
       -0.13437107 -0.27426073 -0.03960618 -0.2901763
0001d0 16 cc 22 3e 85 c6 92 3c 73 09 a1 bd b1 ad a4 3d
       0.15898165 0.017916927 -0.078631304 0.080409415
0001e0 9a e6 20 bd 8a 3a 36 bd 7e b9 bc be 4e 1e 45 be
       -0.03928242 -0.04448942 -0.3686027 -0.19249842
0001f0 00 d6 44 be 5f 65 15 be 46 6d 4f be 0c ec 80 be
       -0.1922226 -0.14589451 -0.20256528 -0.2518009
000200 54 f4 48 be 7d 81 04 bf 66 ea c6 be 39 ab 09 3b
       -0.19624454 -0.51760083 -0.38850707 0.0021006598
000210 1f b3 39 be d1 c9 ce be 2a a0 39 be 43 6e 87 be
       -0.18134736 -0.4038835 -0.18127504 -0.2645131
000220 59 35 52 be ea 99 33 be 93 7c 19 be 2a 6f 87 be
       -0.20528163 -0.17539182 -0.14988928 -0.26452
000230 31 66 a5 be 82 32 09 be 62 83 0d 3e 9d ec 0d be
       -0.32304528 -0.13398173 0.1381965 -0.13859792
000240 bb 6a f0 bd d6 cf 9f bb 26 f4 93 be ca 0d 05 be
       -0.11739107 -0.004877071 -0.28897208 -0.12993541
000250 bc 2d 7d be 92 4c 6f be 76 63 d9 be 07 04 9b be
       -0.24724478 -0.23369053 -0.42458695 -0.3027651
000260 db 45 aa be 3b 46 a9 bc 7b 2d c3 bd fb 2b d2 3e
       -0.3325642 -0.020663371 -0.09530159 0.4104918
000270 1f 84 0f bd 1b 53 83 be 1d 06 81 be 3d 08 88 bc
       -0.03503811 -0.25649342 -0.25199977 -0.01660549
000280 74 30 29 be bd 1c 69 be 7d 2b f0 bd 96 48 1f be
       -0.1652239 -0.22764869 -0.11727045 -0.15555033
000290 2c 37 ef bd c2 de ae be 71 73 2b be f5 63 03 be
       -0.11680445 -0.34154326 -0.16743256 -0.128311
0002a0 08 d3 a3 be e6 4a 35 be 35 e0 9f be ed bd de bc
       -0.31996942 -0.17704353 -0.31225744 -0.027190173
0002b0 dc a8 74 be 78 79 4b be 08 2f d6 be 78 3c 1a be
       -0.2389254 -0.19870555 -0.41832757 -0.1506213
0002c0 c0 61 33 bc 83 76 06 be d9 59 c5 be 76 0a 1e be
       -0.010948598 -0.13131146 -0.3854511 -0.15433678
0002d0 96 c0 20 be e4 3f 2a be 38 f8 98 be 1c b7 d4 bd
       -0.15698466 -0.16625935 -0.29876876 -0.10386488
0002e0 52 56 9f bd 3f ab 66 be de 3f 27 be 1e 46 af be
       -0.07780136 -0.22526263 -0.16332957 -0.34233183
0002f0 57 63 b7 be 22 25 61 be 53 8c d1 bc 65 43 2c be
       -0.35817978 -0.21986821 -0.025579607 -0.16822584
000300 e3 50 d8 bd 68 3d df bb 09 18 eb bd 2e 8a 7b 3c
       -0.10562303 -0.00681274 -0.11479194 0.015352769
000310 32 73 82 be c0 25 02 be 41 82 d8 be 97 17 d9 be
       -0.25478512 -0.12709713 -0.42286876 -0.4240081
000320 a0 0c 97 bd 43 5b 35 be 6f 10 c0 be 51 d1 1b bd
       -0.07375455 -0.17710595 -0.37512538 -0.038041417
000330 d9 e4 ca bd ed ce 80 be c7 a5 8c bd 42 62 b5 be
       -0.099069305 -0.25157872 -0.06867557 -0.35426527
000340 02 cb d4 be 59 e3 d3 bb f5 80 a3 be 0c 49 0a be
       -0.41561133 -0.006466311 -0.31934324 -0.13504428
000350 5c 7b a7 be cf 19 0d be 9f dc 46 bd 39 48 a2 bd
       -0.32711303 -0.13779376 -0.048550244 -0.07923932
000360 29 e0 82 bd 2a b1 49 bd f1 39 1c be 3a 92 8b be
       -0.063904114 -0.049241222 -0.15256478 -0.2726
000370 f6 bd a6 be 9e 2e 68 be 18 8d c6 bd b9 1e 7b be
       -0.32566804 -0.22674033 -0.0969488 -0.24523439
000380 cb be b1 be 52 64 44 be a5 22 9e 3d 67 b4 94 be
       -0.34715876 -0.19178894 0.07721452 -0.29043886
000390 90 9e 6a be 4d d4 11 be 61 9b 78 3e e9 48 12 bd
       -0.2291205 -0.14241143 0.24278022 -0.035714064
0003a0 6e 70 e6 bd 35 21 26 3d 2d 80 46 be 88 86 75 3d
       -0.11251913 0.040559012 -0.19384833 0.059942752
0003b0 c9 21 d3 be c6 b1 b6 bd 15 11 12 bf 56 aa c5 bd
       -0.41236714 -0.08920626 -0.57057315 -0.096516296
0003c0 5b 41 54 bd 43 54 aa be bc 87 3f be 28 ce 55 be
       -0.05182014 -0.33267412 -0.18704122 -0.20879424
0003d0 86 99 99 bd cb fe bd bd 80 f4 95 be 54 c2 0d be
       -0.074999854 -0.092771135 -0.292881 -0.13843662
0003e0 04 5b 87 be 97 80 4a be 7b b1 91 be 0a fa 9a be
       -0.26436627 -0.19775616 -0.2845572 -0.3026889
0003f0 25 d3 4c be e4 2e 3e bd 1f 04 a1 be 6a 9b 88 be
       -0.2000242 -0.046431437 -0.31448457 -0.26681072

3.weight f4 [128, 256]
000000 53 d9 21 3c b3 e1 02 3e c8 f6 9d be 2e e3 66 bd
       0.009878474 0.1278141 -0.30852342 -0.056369
000010 8b 1c 0d 3e 3d 90 ad bc 27 e1 e9 3c d4 de a3 be
       0.1378042 -0.021186942 0.028549744 -0.32005942
000020 c0 b7 dc bc 43 27 39 bf 5e 80 7e be 3d c7 2d be
       -0.026943088 -0.72325534 -0.24853656 -0.16970535
000030 cb 5b 21 bd d0 0e 05 be 43 44 a6 be e5 45 16 bf
       -0.03939418 -0.12993932 -0.32473955 -0.587004
000040 de c9 5e be b2 fa c5 3d b6 d9 07 3d b8 1b 8b bd
       -0.21756694 0.09666957 0.03316661 -0.06792396
000050 f8 a7 45 bf 78 69 86 bd 00 f9 3b bf 60 4d 70 bd
       -0.77209425 -0.06563085 -0.7342682 -0.05866754
000060 d3 7c b9 be 18 9a 27 3d d6 af a2 bd bd 36 74 be
       -0.36228046 0.04091844 -0.07943694 -0.23849006
000070 1b d0 32 3d fb 3c d9 bd 78 bf e5 bd c5 dc 4c 3e
       0.043655496 -0.10607334 -0.112181604 0.20006092
000080 f7 3e a0 be 82 c8 93 bd 83 9f 9e bd 9a 57 37 bd
       -0.31298038 -0.07215978 -0.07745268 -0.044761278
000090 76 a7 3a bc 80 a0 28 3c a5 2e da bd 46 d7 87 bc
       -0.011392465 0.010292172 -0.10653428 -0.016582143
0000a0 6b d2 a1 be 6b 2a 09 3c f2 57 5d bf a0 2d bd bc
       -0.3160585 0.00837193 -0.8646232 -0.023093045
0000b0 d3 4e 64 3d 01 96 43 3e dd 56 9f be 5c 09 a4 bd
       0.055739235 0.1910019 -0.3112096 -0.08009598
0000c0 94 31 35 be 71 77 2d 3e c9 d9 98 be 50 3b a9 bc
       -0.17694694 0.16940095 -0.29853657 -0.020658165
0000d0 f9 54 1f 3d 55 f1 91 3e ed 9e bc bd d2 1f 8c bc
       0.038899396 0.28504434 -0.0921 -0.017105017
0000e0 90 85 b6 3c 5e 83 51 bd d2 1e d3 be 6d d0 bb bd
       0.022280484 -0.051150672 -0.41234452 -0.091706134
0000f0 17 98 b2 bc 1c bf 6d 3d b6 92 0f be b7 b0 c7 3c
       -0.021801038 0.058043584 -0.1402081 0.024376256
000100 78 17 34 3d 40 1a fd 3c de 69 d6 bd bc e5 d5 3c
       0.043967694 0.030896306 -0.10469411 0.026110522
000110 83 be 4d be e3 b8 02 bd f8 46 46 3d 72 e4 22 3d
       -0.20092206 -0.031914603 0.048407525 0.039768644
000120 77 b6 81 be e0 71 b5 3b 0e a5 02 bd b5 b0 2a bf
       -0.25334522 0.0055372566 -0.03189569 -0.66675884
000130 9c b1 a1 be 10 8d aa be b2 36 2c bd 23 9f bb bd
       -0.31580818 -0.33310747 -0.04204435 -0.09161212
000140 50 9c 07 be 8a 35 aa bc cd e0 89 bc 5b f8 43 3e
       -0.13243222 -0.020777483 -0.016830826 0.19137709
000150 2b f5 d3 bd ed 92 43 bf f0 5f 89 be 7c 5c 47 be
       -0.103494965 -0.76396066 -0.26831007 -0.19468874
000160 fa 09 9a bc 3e fe c1 be 1f 0f eb 3e 95 ed 13 bd
       -0.018803585 -0.37889284 0.45909974 -0.036115248
000170 d5 e3 e9 bc 66 b1 61 bd 74 ff b1 bc c1 67 66 bf
       -0.028551022 -0.05510082 -0.021728255 -0.90002066
000180 98 d7 78 3d b7 f8 98 3c 64 0d 54 be 16 b2 33 3d
       0.06075248 0.018673284 -0.20708233 0.043871008
000190 5b 78 c5 3e 4a 16 e6 3e 55 fe c5 bd 3e 6f a0 bd
       0.38568386 0.4493888 -0.096676506 -0.07833718
0001a0 29 ff b3 bc e0 58 69 3d 66 7d 00 3e 82 54 17 3d
       -0.021972256 0.056969523 0.12547836 0.036945827
0001b0 86 5c 01 be a4 71 53 3d e6 64 ed 3a cd 3a 18 3e
       -0.12632951 0.051622048 0.0018111735 0.1486618
0001c0 b5 ec fa be 48 6e 3e be e5 b6 a8 3c f5 c2 1f bf
       -0.49008718 -0.18596756 0.020595023 -0.62406856
0001d0 6d 3c 23 bf 93 11 61 3e cf bb 0c bf ff e8 3c bf
       -0.6376408 0.2197936 -0.54974073 -0.73793024
0001e0 77 42 32 3d d3 fe 2b 3e 4f 8d 09 3d fc 0a 8c bd
       0.043520417 0.16796426 0.033582028 -0.068380326
0001f0 1a 88 41 3d 73 f2 5b be 82 83 a9 bd 71 85 b5 be
       0.047248937 -0.21479206 -0.08277036 -0.3545337
000200 ea b2 89 bd 08 3c 1b be f3 a4 33 bf 65 d6 90 bd
       -0.06723578 -0.15159619 -0.7017357 -0.070721425
000210 71 7b ad 3e 60 02 95 bd 0e 7e 6f 3d 20 96 30 3d
       0.3388324 -0.072758436 0.058469824 0.04311192
000220 05 4a 4a bf 6d c0 05 3e 2b 26 d0 bb 79 a6 ef be
       -0.79019195 0.13061686 -0.006352206 -0.46806696
000230 f4 2a 99 bd cf c0 c7 bb 7e 1e 8d be 2a 2f 0b 3d
       -0.07478896 -0.0060959826 -0.27562326 0.033980526
000240 5b 9b 8b 3c 8e 12 12 bf 07 84 8f 3e 12 5a 83 bd
       0.017041853 -0.5705956 0.28030416 -0.06413664
000250 fb 2c b3 be 05 0b fe be db 26 64 bd 06 2b 99 be
       -0.34995255 -0.49617782 -0.055701118 -0.29915637
000260 8e 87 f0 be 92 e1 4a bd 06 be 82 3e ea 79 d7 be
       -0.4697842 -0.049531527 0.255356 -0.420852
000270 1e a8 40 bd b9 a6 9f bd 3d 3d f9 bd ca 2a 60 bf
       -0.04703533 -0.07795472 -0.121698834 -0.8756529
000280 cb 3f 24 be 89 7d 82 bd fa 96 38 bd 13 dc fd bc
       -0.1603996 -0.063716 -0.045065857 -0.030988729
000290 0f dd ac bd 0d fd 55 bd 04 28 e0 be 08 6d 75 3d
       -0.08440601 -0.05224328 -0.4378053 0.059918433
0002a0 a9 8f 8f 3c de 48 de 3c 47 66 86 3c da 5d 08 3d
       0.017524557 0.027134355 0.016406192 0.03329263
0002b0 da 54 63 be 82 9c 16 bf f3 51 2e 3c 62 58 1c bf
       -0.22200337 -0.5883256 0.010639655 -0.6107236
0002c0 36 a9 4d bf 3a 4f 78 be 0e 23 fe be 63 9e 5f 3e
       -0.8033632 -0.24248973 -0.4963612 0.21837763
0002d0 90 c9 2c 3b c3 97 3b be 07 71 23 bf d8 e0 59 3d
       0.0026365258 -0.18319611 -0.6384434 0.053192943
0002e0 bb f1 75 be 1c 63 28 be 75 10 bd 3e d5 55 ca be
       -0.24017994 -0.16444057 0.36926618 -0.3951861
0002f0 80 f2 20 bf ab 39 c5 3c 61 a8 44 bd 6c ff bd bc
       -0.62870026 0.02407535 -0.04801214 -0.023193084
000300 1e ff f1 3d b7 a3 f0 bd 0a e6 c6 be 46 81 5e bf
       0.11816238 -0.11749976 -0.3884738 -0.86916006
000310 56 0d c4 3d b8 64 ad 3c 0f e9 a8 3d 53 64 5a bf
       0.09572856 0.02116619 0.082475774 -0.8530933
000320 62 79 6d 3d 7d d8 dd be ad 31 27 3e dc fc 82 bd
       0.057977088 -0.4332923 0.16327544 -0.06395885
000330 29 69 a1 bc 6b 63 d1 bd 08 16 d4 3c 23 fc da 3d
       -0.019703465 -0.102240406 0.025889412 0.106926225
000340 0f 89 75 bd f8 5c 98 3c 4e c2 fe be bd 01 bd 3b
       -0.059945162 0.018599018 -0.49757618 0.0057680295
000350 e6 55 d6 be d4 cf 36 3d 88 9f 35 3c 62 11 da 3c
       -0.4186241 0.044631794 0.0110853985 0.026619617
000360 e8 da 21 3e 2e 86 82 be 32 8e 07 be ee 2b 00 3e
       0.15806162 -0.25492996 -0.13237837 0.12516758
000370 d6 18 35 bd 71 df eb 3c 68 6a 83 bd ae c9 17 bd
       -0.04421314 0.028793069 -0.0641678 -0.03705757
000380 58 14 8c be 53 1a db be c3 01 b4 be e3 80 ee bd
       -0.2735927 -0.4279352 -0.35157594 -0.11645677
000390 ec 38 07 be 61 05 8c bd 2d e3 d6 be 58 a9 f6 bc
       -0.13205308 -0.068369634 -0.41970196 -0.030110046
0003a0 05 30 4b be 26 3c 12 bf 3b c8 b1 be 85 e9 0f be
       -0.19842537 -0.5712303 -0.34723076 -0.14053924
0003b0 84 f1 8b 3c 3b 8c da 3d 5f 38 a1 be a5 65 37 bf
       0.017082937 0.10671278 -0.3148832 -0.7163947
0003c0 b8 96 f6 3c 31 c6 1a 3e aa 49 0b bd d7 b3 00 bb
       0.030101165 0.15114667 -0.0340058 -0.0019638443
0003d0 3e 01 de be 86 ec 33 bf 54 c4 6c 3e 0f a9 56 3d
       -0.43360323 -0.7028278 0.23121768 0.05240732
0003e0 fd 63 47 bf 6c 6f a3 bd 6d dd 38 bf a8 3c b4 be
       -0.77886945 -0.079802364 -0.7221287 -0.35202527
0003f0 22 13 d8 bd 4b b3 b6 3a 1f ae 2d be 64 6d 3f be
       -0.10550524 0.0013938932 -0.16960953 -0.18694073

3.bias f4 [128]
000000 05 20 94 3d 62 aa d4 bf d0 18 ba 3e 30 e7 83 3c
       0.0723267 -1.6614497 0.36347055 0.01610145
000010 9b 97 24 bf 9f e1 89 3f cb 76 f7 bf 0d 96 96 3d
       -0.6429383 1.0771979 -1.9333128 0.07352839
000020 25 fb 10 bf c3 da de bf 27 15 b0 be 01 b2 72 be
       -0.56633216 -1.7410511 -0.34391138 -0.23700716
000030 3b e0 15 3e 1d 05 82 bf 89 bd 90 bf bf b5 0c 3f
       0.14636318 -1.015781 -1.1307842 0.5496482
000040 f3 1e a0 be 5f ce 1c be 06 bb 91 3e 0a 76 6e bf
       -0.31273612 -0.153131 0.28463 -0.93148863
000050 05 25 cd 3e 31 6d ab be 1d 8b 50 bf 42 a7 15 bf
       0.40067306 -0.33481744 -0.8146227 -0.5845834
000060 20 c5 f5 3f 12 33 9d bf dd 3e 0b 3e 2c 13 1f bf
       1.9200783 -1.228121 0.13598199 -0.6213863
000070 b6 2f 4f be e8 51 47 3f ce ac e0 3f f8 7e 06 bd
       -0.20233044 0.77859354 1.7552736 -0.03283593
000080 3e b5 0a 3f 5e 04 20 be b4 7c 55 3e d6 3f d7 bf
       0.54182804 -0.15626666 0.20848352 -1.6816356
000090 91 8d 1b be ff 61 53 bf fb 34 a7 be f4 8c 6b 3e
       -0.15190722 -0.82571405 -0.32657608 0.23002988
0000a0 16 2f 3d 3f c4 e2 7b bf eb 4a eb be 7c df 3a bf
       0.7389997 -0.9839289 -0.45955595 -0.7299726
0000b0 ec 44 8a bf c6 c4 9c bf 1b 20 b2 3f 6b e6 f8 be
       -1.0802283 -1.224755 1.3916048 -0.48613295
0000c0 ad 77 a7 3e b8 f3 a9 3f 5a d6 c6 bf 31 43 1f bf
       0.32708493 1.3277502 -1.5534165 -0.622119
0000d0 7e 0e 9e be 68 82 f2 3e 53 96 9f bd 28 c5 d7 3e
       -0.30870432 0.47365117 -0.07792344 0.42142606
0000e0 db 80 81 bd e3 6d 50 be 48 b9 4f bf f4 8e 9b be
       -0.06323405 -0.20354418 -0.8114209 -0.30382502
0000f0 7c b9 a3 3d 07 49 ae bd 49 dd 44 be a5 74 c9 bd
       0.07994363 -0.085100226 -0.19225039 -0.09836701
000100 e2 d4 97 be d1 1b 33 3f 4b f4 74 3d f8 3e ba be
       -0.29654604 0.6996432 0.05980329 -0.36376166
000110 de 82 6e bd 0e 23 cd 3d 2d c0 32 3f a0 b7 53 3f
       -0.058230273 0.10016452 0.69824487 0.82702065
000120 4e 8f 2e bf d2 77 0a bf 89 9b 6e 3f 2a 92 ad be
       -0.68187416 -0.5408908 0.9320608 -0.33900577
000130 5c ac 0b 3e 93 a7 17 3e 94 c2 e4 be f7 e6 28 3e
       0.13639969 0.14810018 -0.446797 0.16494356
000140 f3 2e 7f 3e d4 18 a3 3e 5d 46 b7 be 0b 3b 89 bf
       0.24920253 0.3185488 -0.3579587 -1.0721143
000150 9d 9c 48 3d 11 be 08 c0 80 2f a7 bf bf 41 a5 bf
       0.048977483 -2.1366007 -1.3061371 -1.2910689
000160 35 4a 2d 3d 59 aa a5 bd 81 f3 38 3e 98 41 49 3f
       0.042307097 -0.08089132 0.1806164 0.78615713
000170 a1 09 a0 be 80 5e 75 bf 50 0d 94 bf cc 91 1d 3f
       -0.31257346 -0.9584732 -1.1566563 0.61550593
000180 80 7e a8 3e dd 6e 6d bf 34 4a 91 bf 62 fb 73 3e
       0.32909012 -0.9274729 -1.135077 0.23826364
000190 27 4b 32 3f f9 00 43 bf be 19 f5 3c c9 e1 78 be
       0.69645923 -0.7617336 0.029919501 -0.2430488
0001a0 91 fb de be 3f 52 93 bf 9a c0 04 3f 26 5a 96 3f
       -0.43551305 -1.1509475 0.51856387 1.1746261
0001b0 fd 1a 91 3e 98 1e 24 bf e1 d0 9a bf c7 ae 54 be
       0.28340903 -0.6410918 -1.2094995 -0.20769797
0001c0 f2 49 a1 be 2a 9b 5f bf 50 f2 00 3e 21 ad 44 be
       -0.31501728 -0.87346137 0.12592435 -0.19206668
0001d0 54 b2 d0 3d 1c 34 d6 3e 70 af ad be 7b 99 2a bf
       0.101902634 0.4183663 -0.3392291 -0.6664044
0001e0 33 13 19 bf 81 31 1f 3f 64 f0 98 bf e4 e3 a7 bf
       -0.5979492 0.6218491 -1.1948361 -1.3116422
0001f0 58 c7 be bf a9 b2 3b bf 08 00 d9 bf f9 70 1d 3e
       -1.4904585 -0.7331949 -1.6953135 0.15375127

6.weight f4 [64, 128]
000000 03 7f 4b be 54 80 00 3c f0 50 cc be 75 61 1d 3e
       -0.1987267 0.007843096 -0.399055 0.15369208
000010 65 f8 90 be 40 6e 66 be 7c 91 57 3e 0a 1a fe be
       -0.2831451 -0.22502995 0.21051592 -0.4962924
000020 ef 2c 32 3e 98 37 ab 3e 0c 5a 20 be 19 de 22 be
       0.17399953 0.33440852 -0.1565935 -0.15905036
000030 97 90 c3 bd 47 f2 71 be 7f 29 06 be 81 bc c5 be
       -0.09549063 -0.23627578 -0.13101767 -0.3862038
000040 43 b1 ad be 9a 8d 48 bf 9d 9c ab be 78 bf 2d 3e
       -0.33924302 -0.78341067 -0.33517924 0.16967571
000050 fd 97 11 be d9 04 28 3e d5 e0 10 3d ae ca 3e bb
       -0.14218135 0.16408099 0.035370667 -0.0029112506
000060 4e da dc bb 82 bc a2 be 66 5d 19 bf 77 b0 d1 be
       -0.006739891 -0.31784445 -0.5990814 -0.40954944
000070 45 5e 1e be 8a 1a 3f be 24 34 80 bd d2 f6 39 bf
       -0.15465648 -0.18662468 -0.06259945 -0.7264224
000080 82 f7 c3 bd 53 7b e0 be fb d2 8a 3d ae 97 04 3e
       -0.09568693 -0.4384409 0.067785226 0.12948486
000090 d6 cd c0 be e7 1d a0 3d ed 6f 0a 3e 7a e4 9b be
       -0.3765704 0.078182034 0.13519259 -0.3044775
0000a0 c3 59 f6 be f9 18 71 3d f2 44 cd be f4 58 ca 3d
       -0.48115358 0.058861706 -0.40091664 0.09880248
0000b0 a3 43 a5 3e 53 8d b9 3e a1 fa a8 3d cd cf 43 3d
       0.32278165 0.36240634 0.08250929 0.047805596
0000c0 9b 9f 2c be 13 52 66 bd dc 1c 0d bd 77 e0 74 be
       -0.1685776 -0.056230616 -0.03445135 -0.23913752
0000d0 7e 40 80 bd 77 4a c5 bd 34 3a 6d bf fa 90 d7 be
       -0.06262301 -0.09633344 -0.92666936 -0.42102796
0000e0 e0 1a 6c 3c 99 8f 31 3e 53 6b 2f bf b4 1e 31 3e
       0.014410704 0.17339934 -0.6852314 0.17296869
0000f0 ad 1a 76 bf 28 e9 f0 bc 10 9f f4 bd 8e e7 e7 be
       -0.96134454 -0.029408053 -0.11944401 -0.4529385
000100 59 c3 4c 3d f4 70 2b 3d 11 39 b2 be 7a 69 0d 3d
       0.049990986 0.041855767 -0.34809163 0.03452442
000110 50 35 12 bf a8 72 dd bd d4 37 39 be 1c 3f 67 be
       -0.571126 -0.108128846 -0.18087703 -0.22582668
000120 df 40 b3 be 26 b0 10 be 01 b2 1b be b8 e5 a1 3c
       -0.3501043 -0.14129695 -0.15204622 0.019762859
000130 f6 d0 95 be 27 78 24 bf 4a a8 e2 be 89 d5 40 be
       -0.29260987 -0.6424584 -0.4426902 -0.18831457
000140 41 78 e5 bd 37 ec 08 bf ea e4 84 bf 89 33 7d be
       -0.11204577 -0.53485435 -1.0382359 -0.2472669
000150 04 a6 5f be 8e b3 c5 be 12 a0 33 bf 11 c3 a0 3d
       -0.21840674 -0.38613552 -0.7016612 0.07849706
000160 62 92 4e be fe b8 83 3d 09 b6 f6 bd 4b 69 ed bd
       -0.20173028 0.06431769 -0.12046439 -0.11592349
000170 47 7b ed be d3 77 86 be c3 ee 9e bb 80 e5 01 bf
       -0.46383116 -0.26263294 -0.00485024 -0.50740814
000180 63 b2 8f be 04 de 2c be cf ab ba be ae a7 87 3d
       -0.28065786 -0.16881567 -0.36459205 0.06623779
000190 59 9a da bc bf 6c 3e 3c 5d e2 ea be b4 e6 67 be
       -0.026684927 0.011622607 -0.45875826 -0.226466
0001a0 d7 03 c2 be 27 4f 18 3d d4 1b 96 3d 52 87 af 3d
       -0.37893555 0.03718486 0.073295265 0.08570732
0001b0 88 25 1e be 47 f0 9c bd cf 78 1d 3e f0 6e e4 3d
       -0.15444005 -0.07663017 0.15378116 0.11153972
0001c0 71 ac 37 be 14 17 36 be 14 c6 8c 3d a4 87 35 bd
       -0.17936875 -0.17782241 0.06873718 -0.04431881
0001d0 ad bb 7e be 92 39 cd be d3 e9 d8 be 90 db a2 3c
       -0.2487628 -0.40082985 -0.42365894 0.019880086
0001e0 75 70 ca bd b1 62 4a 3e 47 df 16 3e 6b 65 0c bd
       -0.09884731 0.1976421 0.14733611 -0.034276407
0001f0 8a f1 3b bd 07 bd 35 be 9c f9 cc 3d e3 2f b1 be
       -0.045884646 -0.1774789 0.10008547 -0.34606847
000200 4e 50 8c be 1c 28 11 bd 60 ff f2 be 35 48 11 bf
       -0.27405018 -0.035438642 -0.4746046 -0.56750804
000210 c0 4c 3d 3d f1 50 fe be fe 00 c0 3e 71 1d 37 bd
       0.046215773 -0.49671128 0.37500757 -0.044705812
000220 f1 fd cf bd 31 3e 9b be 4c dc c7 be ed 6a c0 3d
       -0.10155857 -0.30320886 -0.3903526 0.093953945
000230 0b 7a 1d 3d 5b 79 e5 bd 98 6b d4 3d 9b a5 95 be
       0.038446467 -0.11204787 0.103720844 -0.2922791
000240 bf 9e f7 3d 37 96 86 be 98 e8 f5 3d 7f 69 68 3d
       0.12090825 -0.2628648 0.12007254 0.056741234
000250 7d 4b 8a be 8b 61 07 bf 98 e5 e2 bd 97 e1 cb 3c
       -0.27010718 -0.52883214 -0.11078948 0.024887843
000260 14 c2 0e be ea 60 11 bf c5 95 e7 3d f5 55 95 be
       -0.13941222 -0.56788504 0.11307863 -0.29167143
000270 2c e0 5f bd 8c 65 7b bf 17 c9 a1 bc 3f 5d 81 be
       -0.054657146 -0.98201823 -0.019749207 -0.25266454
000280 9e aa a3 bd 25 f1 41 3d ee fc 19 be 90 5d 6c be
       -0.07991527 0.047349114 -0.15037891 -0.23082566
000290 90 92 96 be 71 d9 18 3e ce 65 10 bf 88 14 b9 be
       -0.29408693 0.14926697 -0.5640534 -0.36148477
0002a0 93 62 f8 be 6c 88 4d be ff 44 e7 be 2d ad a8 3c
       -0.48512706 -0.20071572 -0.45169827 0.02059039
0002b0 ff a2 bb be 0f 70 e8 be 82 b1 3d be 1c f9 ce be
       -0.36647794 -0.45397994 -0.18524745 -0.4042443
0002c0 f0 98 a2 bd c9 85 9d bd d0 7e 9c bd 02 62 65 be
       -0.07939327 -0.07691533 -0.07641375 -0.22400668
0002d0 12 53 3d bf ac 2c d3 bc 5c b8 3d be 80 98 0a 3d
       -0.7395488 -0.025778137 -0.18527359 0.03383684
0002e0 2f bb 47 be ff 97 ba be b4 bb c2 3d 5f cd a2 be
       -0.19504999 -0.3644409 0.09508458 -0.3179731
0002f0 d9 5d fa be ae b8 df bd 9b a7 79 be 4d 0f ed bd
       -0.48899725 -0.10923897 -0.24380343 -0.11575184
000300 6a 8b 2f bf 49 ab 00 bf 02 7e 33 be 64 04 69 3e
       -0.68572104 -0.5026136 -0.17528537 0.22755581
000310 c6 6b e9 be 47 ef d5 3d a9 4e 90 3e 7e 45 35 be
       -0.45590037 0.10446029 0.28185013 -0.1770229
000320 86 24 2d bd 08 73 fc bd 31 52 30 bc cc 5e b9 be
       -0.04227116 -0.12326628 -0.010761783 -0.36205137
000330 ed b4 67 3e 50 fe 3a be 69 75 9c bd 23 90 63 be
       0.22627611 -0.18261075 -0.07639582 -0.22222953
000340 ae 93 4e be e3 ca ac be 4a c4 a2 bd de fc 5c 3d
       -0.20173523 -0.3374854 -0.079475954 0.05395209
000350 0e fc 7b be 10 04 ae 3d 52 39 c8 bd 0d e5 2b 3e
       -0.2460787 0.084968686 -0.09776558 0.16786595
000360 b3 0d 94 3b 14 12 a3 be f5 14 4e 3e 3a 66 a4 be
       0.0045182346 -0.3184973 0.20125182 -0.32109243
000370 f1 39 a1 3d 79 af 05 be 58 e6 8f 3d 49 7b 97 be
       0.078723796 -0.13055219 0.070263565 -0.29586247
000380 24 9c 24 bf 0e 97 00 bf 33 aa 2a be 1e e9 a1 3b
       -0.6430075 -0.5023049 -0.16666488 0.00494112
000390 11 9d fb bd 48 62 0c bf 26 a0 63 be 46 fb 1f bf
       -0.122858174 -0.54837465 -0.2222906 -0.6249279
0003a0 3a 56 57 3e ee 04 02 be 7f f0 15 3e 49 6d 3f bf
       0.21028987 -0.12697193 0.14642523 -0.7477613
0003b0 eb 4a 88 be cc 7e e5 3e ea a0 a9 bd 10 ec 22 bf
       -0.26619658 0.448233 -0.08282645 -0.6364145
0003c0 66 20 51 bd 6f 00 69 be da 05 ae 3d db 9f eb bd
       -0.05105629 -0.22754072 0.0849721 -0.115050994
0003d0 27 93 aa bc b9 a6 20 bd aa 21 09 3d ad c2 d6 be
       -0.02082212 -0.0392215 0.03347937 -0.419454
0003e0 6b 86 3d 3e b4 c2 08 bf 02 51 e4 3c fd 47 4b be
       0.18508308 -0.53422093 0.027870659 -0.1985168
0003f0 cf cb 53 3c be 73 ad bd c0 85 0c bf 16 5c cc 3d
       0.01292701 -0.08469342 -0.54891586 0.099785015

6.bias f4 [64]
000000 c2 15 b6 3e b1 a3 83 3f cc d0 27 3f c1 08 53 bf
       0.35563475 1.028433 0.65552974 -0.8243523
000010 69 0b 33 3f ab da b9 bf e0 05 9d 3f 8f aa 8d bf
       0.69939286 -1.4519857 1.2267418 -1.1067675
000020 b5 ea 84 3f 87 a6 69 3f 5f ca ed 3e c2 7f db 3e
       1.0384127 0.91269726 0.4644346 0.4287091
000030 03 31 7d 3f d4 d4 36 3f e2 23 99 3f 22 cd a1 3f
       0.9890291 0.714185 1.1964076 1.2640727
000040 8b e6 00 3f 93 b3 05 3f 4a e5 d9 3e 3e 69 b2 bf
       0.5035178 0.52227134 0.42557746 -1.3938367
000050 fd 32 83 3f c8 d8 fd 3e c8 7b 50 3f bd 30 c3 3f
       1.0249935 0.49579453 0.81438875 1.5249249
000060 84 f9 8c 3f d0 4f a5 3c 29 2a e1 bf ed a2 82 3f
       1.1013646 0.02017966 -1.7590991 1.0205971
000070 50 db 8f 3f ad ae 1e 3f ad 30 58 3f fc 5c ac 3e
       1.1238804 0.61985284 0.84449273 0.3366469
000080 da c3 6c 3f db b3 87 3f 84 e5 54 bc 46 79 b4 3f
       0.92486346 1.0601763 -0.012994174 1.409951
000090 31 4e 03 c0 a1 c0 87 3f db d1 9e 3f 7c 1b a6 3f
       -2.0516474 1.0605661 1.2407793 1.2977138
0000a0 d0 38 4b 3f 8a 74 e6 bf d5 73 88 3f be 1d a5 3f
       0.79383564 -1.8004315 1.0660349 1.2899702
0000b0 a9 42 86 3f e7 0b d3 bf da f8 65 3f d6 c4 1e 3f
       1.0489093 -1.6488007 0.8983284 0.620191
0000c0 ee b6 1b bf 5e 43 78 3f 2b ed 17 3f 7a 75 0f 3f
       -0.60826004 0.96977794 0.59346265 0.5603863
0000d0 bd 40 ff 3e 3f 4c 80 3f 38 ca 6a 3f 27 19 cb 3e
       0.4985408 1.0023268 0.9171481 0.39667627
0000e0 d1 23 31 3f 52 c4 99 3e 33 84 81 3f bb 89 8d 3e
       0.69195276 0.30032593 1.0118469 0.27644143
0000f0 c0 e2 dd 3f e0 d7 6c 3f 31 95 e5 3e 65 08 90 3f
       1.7334824 0.925169 0.44840387 1.1252562

9.weight f4 [10, 64]
000000 75 51 c1 bd 80 8a 84 3d 46 bb 82 3c 18 03 73 bd
       -0.09439365 0.06471729 0.01595844 -0.059329122
000010 51 17 19 be 10 2d 42 be 9d 22 43 3d 9d 48 02 be
       -0.14950301 -0.18962502 0.04764043 -0.12723012
000020 85 ae ce be f0 aa d5 bd b7 29 8f 3c 00 a2 95 be
       -0.40367523 -0.10432994 0.017475946 -0.2922516
000030 c9 f4 5f bc b2 d7 2f bf ef 07 7a 3d f7 39 44 3c
       -0.013669201 -0.686885 0.061042722 0.0119767105
000040 34 2b 32 3d 56 3a 3c bd 4b 2d 0b bd ab f0 30 be
       0.043498233 -0.04595407 -0.03397874 -0.17279308
000050 6a 0a 45 be b2 21 cd be f3 75 66 be e8 83 50 3c
       -0.19242254 -0.4006477 -0.22505932 0.012726761
000060 37 e2 0f 3d c2 64 93 3d 7b cd 48 be 88 a5 74 3c
       0.035127845 0.071969524 -0.19609635 0.014932044
000070 b5 d7 36 be 81 f8 c1 bd 4a 1b 99 3d 68 27 5e be
       -0.17855723 -0.094712265 0.07475908 -0.2169472
000080 09 5d 2d be 55 c6 59 3d 28 5b d5 bd b4 c4 89 3d
       -0.16930021 0.05316766 -0.10417777 0.06726971
000090 ff 3e bd bd b0 b1 de 3d e5 ee ae be cb 3f 04 be
       -0.09240531 0.10873735 -0.34166637 -0.1291496
0000a0 a7 51 3b be 24 8b 75 be e4 e8 82 3d a5 47 7e bc
       -0.18292867 -0.23978859 0.063920766 -0.015520011
0000b0 a9 af 6a bd d0 9a 63 bd 7d fd 25 3e 1c 35 23 bf
       -0.05729643 -0.055567563 0.1620998 -0.63752913
0000c0 44 95 20 be 5f c0 9b bd 75 4c 03 3e 72 5f 91 bd
       -0.1568194 -0.07605051 0.12822135 -0.07098283
0000d0 b8 07 49 3d 28 57 00 bf 6b 26 8c 3d f2 82 73 be
       0.049079627 -0.5013299 0.06843265 -0.2378042
0000e0 05 3c 30 be 4f 31 44 be 4f 0a 10 be a0 0f 85 bd
       -0.17210396 -0.19159435 -0.14066432 -0.06497121
0000f0 25 14 0b bd ae 74 6f bd 0f 44 47 3d 6d e4 04 3e
       -0.03395476 -0.058460884 0.04864889 0.12977763
000100 d0 59 51 3d 17 2c 38 be b0 11 f2 3c c5 80 03 be
       0.051111042 -0.17985569 0.02954945 -0.1284209
000110 8e 18 2b be 26 e3 0c bf da d4 ac 3d eb 3f 95 be
       -0.16708586 -0.550341 0.08439036 -0.29150328
000120 b7 62 a0 be 2d 12 0f bd 3d b0 b4 3d e5 42 3c be
       -0.31325313 -0.034929443 0.08822677 -0.18384893
000130 4f a0 e8 bd 8e aa c9 be c0 d3 f9 3d f2 b4 76 3c
       -0.113587014 -0.39387935 0.12198591 0.015057789
000140 1e 9b 43 3c b8 3a a8 3d fb 6a 26 3c b2 b9 21 3c
       0.011938838 0.08214325 0.010157342 0.009870933
000150 26 cf 0b be 95 66 07 bf b5 b8 57 3b ee 94 88 bc
       -0.1365324 -0.528909 0.003291649 -0.016672578
000160 47 2a ed 3d ca f3 07 be b3 cf 6c be 71 65 24 3d
       0.115803294 -0.13276592 -0.23126106 0.040135805
000170 74 2b 69 be 56 5b 65 be aa 98 84 bd 74 0b 91 be
       -0.22770482 -0.22398123 -0.06474431 -0.2832905
000180 e5 95 a6 bd 91 6a f8 3c 5b e8 84 be 26 8c 2b be
       -0.08134059 0.030324252 -0.25958523 -0.16752681
000190 ff 81 74 be e1 38 8f bd d3 ee 83 be a3 17 8e be
       -0.23877715 -0.06993271 -0.25768146 -0.27752408
0001a0 11 3b b1 bd bb 38 21 be 8e 64 56 bc dd 8b 43 3c
       -0.08653844 -0.15744297 -0.013085498 0.0119352015
0001b0 18 71 e1 bb dc 31 9e bd 8e 0c 00 be 2b b5 98 be
       -0.006879937 -0.07724354 -0.12504789 -0.2982572
0001c0 0e 83 24 3d c9 f6 ed bd 35 6b 0b be 8a 14 53 be
       0.040164046 -0.11619336 -0.13615115 -0.20613304
0001d0 e6 43 37 3c 47 eb 93 be 40 ea cd 3d 67 4a 2d bd
       0.011185622 -0.2889044 0.10054445 -0.042307284
0001e0 9f 93 63 be a1 4c 0d bf 78 e3 fd 3d db da f4 be
       -0.22224282 -0.5519505 0.12396902 -0.47823223
0001f0 37 05 04 be 96 20 b0 3c 82 ed c5 3d d7 d1 bc bd
       -0.12892614 0.021499913 0.09664442 -0.09219711
000200 be 5e 90 3d ff b2 b3 bd 90 39 3d 3c 74 6e 9e bd
       0.07049321 -0.08774375 0.0115493685 -0.07735911
000210 b4 75 ad be 55 3d 61 be e8 22 82 3d ad f8 44 be
       -0.33878863 -0.21996053 0.06354314 -0.19235487
000220 ee 64 53 be d9 6c 4e bc 5a 6f e2 bd c0 fa dd 3d
       -0.2064397 -0.0125991935 -0.11056395 0.108388424
000230 cc e9 a8 3d b4 a8 03 bf 33 f4 28 be 17 16 c0 3d
       0.08247718 -0.51429296 -0.16499405 0.09379213
000240 db 0b e1 3d b8 42 1b be 89 0d db 3b ab 28 69 bd
       0.109885894 -0.1516217 0.006684963 -0.05692355
000250 3a c4 cf be c2 c3 d1 be e6 ac 96 3c 05 e9 b2 3c
       -0.40579396 -0.40969664 0.018392991 0.021839628
000260 68 d1 29 bd a7 cc cc bd 36 a1 9e be 4d d6 31 bd
       -0.04145947 -0.09999972 -0.3098237 -0.043417264
000270 bb 82 1b bc f9 03 64 be 36 02 6d 3d 84 e5 61 be
       -0.009491618 -0.2226714 0.057863437 -0.2206021
000280 92 a0 6b be 69 3d 08 3d ce dd 0b be 34 51 18 bd
       -0.23010471 0.03326169 -0.1365883 -0.037186816
000290 b4 f7 89 be fc 23 b0 bd a1 2f b3 be 3c 15 59 bc
       -0.26946795 -0.086006135 -0.34997275 -0.013249692
0002a0 67 75 aa 3d 33 bf 3b be 54 e0 f4 bd 9c d2 39 be
       0.08323174 -0.18334655 -0.1195685 -0.18146747
0002b0 60 48 75 3d 0c 0c f8 bc 31 32 c4 3d 8f 4f 10 bf
       0.059883475 -0.030279182 0.09579886 -0.56371397
0002c0 50 90 56 be 8c 78 01 3d ea 6c ef bc 31 6f a1 bd
       -0.20953488 0.031609103 -0.029226739 -0.07882536
0002d0 07 7e 96 3d cf 49 b6 be 9c 48 e9 3d ce e5 8c be
       0.073482566 -0.35603186 0.11390802 -0.27519077
0002e0 af d0 15 be bc 68 7d 3d 8a a8 b9 3c be 02 39 bb
       -0.14630388 0.06186746 0.022663374 -0.0028230394
0002f0 ff b4 10 3d 22 ce f2 bd 9a 26 a5 bd 7c 0a 19 be
       0.03532886 -0.11855723 -0.08064003 -0.14945406
000300 45 0d 71 bd 35 57 84 bd 79 77 dd 3d 9b 15 f5 bd
       -0.058850545 -0.06461946 0.10813803 -0.119670115
000310 5c 3b 86 be 46 77 7b be fa c2 c0 bc b0 ae 3a be
       -0.26217163 -0.24557218 -0.023530472 -0.182307
000320 b1 b1 56 be 1c 92 9f 3d 26 97 b4 3d ba 62 c2 be
       -0.20966221 0.0779154 0.08817892 -0.37965947
000330 32 31 08 3d d3 66 98 be 02 f2 bf 3c 16 5e 1c be
       0.03325004 -0.2976595 0.023430828 -0.15270266
000340 6f 68 10 3e 2a f3 e1 3c b0 57 d7 bd 4c ec 82 bd
       0.14102338 0.02758177 -0.10514772 -0.06392726
000350 e7 4a 8a be 18 ec 9a be 3a ff 7d 3d d0 e3 17 be
       -0.2701027 -0.3025825 0.06201098 -0.14832997
000360 b4 0f 1a 3c ec ce 9f bd 4c 8a 9d be 6b 67 b5 3d
       0.009403158 -0.07803139 -0.30769575 0.08857616
000370 e4 87 c9 be 54 22 be be 81 a7 d7 3d 0d 4b e3 be
       -0.3936149 -0.37135565 0.10529996 -0.44393197
000380 50 01 1a be 80 47 a6 bc a6 b2 0d be 9a 03 0b be
       -0.15039563 -0.020297766 -0.1383768 -0.13575593
000390 5b 98 85 be 52 6a 86 bd 12 21 8f be 16 6d 16 be
       -0.260928 -0.06563248 -0.27954918 -0.1469005
0003a0 ad 41 87 bd ec 3c 28 be 1f 1f 54 3d a4 c0 6d 3d
       -0.066043235 -0.1642949 0.051787492 0.058045045
0003b0 b2 01 2a be 78 61 97 be 7b 25 0e 3d 43 2c 8b be
       -0.16602209 -0.2956655 0.034703713 -0.27182207
0003c0 9b 82 18 be eb a1 04 be 36 b8 88 bd 30 f2 3e be
       -0.14893572 -0.12952392 -0.066757604 -0.18647075
0003d0 1b 9b 0a 3e f3 fb ee be 08 8b 0e bd b2 fe 6c be
       0.1353573 -0.46676597 -0.03480056 -0.23144034
0003e0 86 73 71 be 1b e9 47 be 4e d0 b3 3b fb 7a c2 be
       -0.23579225 -0.19522516 0.0054874783 -0.37984452
0003f0 60 7d c6 bd 72 e8 0a 3d 58 59 65 3d 30 c0 8f 3d
       -0.09691882 0.033913083 0.055993408 0.07019079

9.bias f4 [10]
000000 dd e0 35 be 83 12 bb bf d9 55 15 3e d6 92 d4 3e
       -0.1776156 -1.4615024 0.1458353 0.41518277
000010 d7 98 92 3e b8 81 b6 be 90 7c c9 3d fa 7c 9d 3e
       0.28632233 -0.35645843 0.098382115 0.30759412
000020 8d 81 02 bd 6c 25 e1 be
       -0.03186183 -0.43973863
